Model: "model"
__________________________________________________________________________________________________
Layer (type)                    Output Shape         Param #     Connected to                     
==================================================================================================
input_1 (InputLayer)            [(None, 256, 256, 1) 0                                            
__________________________________________________________________________________________________
conv2d (Conv2D)                 (None, 256, 256, 32) 320         input_1[0][0]                    
__________________________________________________________________________________________________
batch_normalization (BatchNorma (None, 256, 256, 32) 128         conv2d[0][0]                     
__________________________________________________________________________________________________
leaky_re_lu (LeakyReLU)         (None, 256, 256, 32) 0           batch_normalization[0][0]        
__________________________________________________________________________________________________
max_pooling2d (MaxPooling2D)    (None, 128, 128, 32) 0           leaky_re_lu[0][0]                
__________________________________________________________________________________________________
conv2d_1 (Conv2D)               (None, 128, 128, 32) 9248        max_pooling2d[0][0]              
__________________________________________________________________________________________________
batch_normalization_1 (BatchNor (None, 128, 128, 32) 128         conv2d_1[0][0]                   
__________________________________________________________________________________________________
leaky_re_lu_1 (LeakyReLU)       (None, 128, 128, 32) 0           batch_normalization_1[0][0]      
__________________________________________________________________________________________________
max_pooling2d_1 (MaxPooling2D)  (None, 64, 64, 32)   0           leaky_re_lu_1[0][0]              
__________________________________________________________________________________________________
conv2d_2 (Conv2D)               (None, 64, 64, 64)   18496       max_pooling2d_1[0][0]            
__________________________________________________________________________________________________
batch_normalization_2 (BatchNor (None, 64, 64, 64)   256         conv2d_2[0][0]                   
__________________________________________________________________________________________________
leaky_re_lu_2 (LeakyReLU)       (None, 64, 64, 64)   0           batch_normalization_2[0][0]      
__________________________________________________________________________________________________
max_pooling2d_2 (MaxPooling2D)  (None, 32, 32, 64)   0           leaky_re_lu_2[0][0]              
__________________________________________________________________________________________________
conv2d_3 (Conv2D)               (None, 32, 32, 64)   36928       max_pooling2d_2[0][0]            
__________________________________________________________________________________________________
batch_normalization_3 (BatchNor (None, 32, 32, 64)   256         conv2d_3[0][0]                   
__________________________________________________________________________________________________
leaky_re_lu_3 (LeakyReLU)       (None, 32, 32, 64)   0           batch_normalization_3[0][0]      
__________________________________________________________________________________________________
max_pooling2d_3 (MaxPooling2D)  (None, 16, 16, 64)   0           leaky_re_lu_3[0][0]              
__________________________________________________________________________________________________
conv2d_4 (Conv2D)               (None, 16, 16, 128)  73856       max_pooling2d_3[0][0]            
__________________________________________________________________________________________________
batch_normalization_4 (BatchNor (None, 16, 16, 128)  512         conv2d_4[0][0]                   
__________________________________________________________________________________________________
leaky_re_lu_4 (LeakyReLU)       (None, 16, 16, 128)  0           batch_normalization_4[0][0]      
__________________________________________________________________________________________________
max_pooling2d_4 (MaxPooling2D)  (None, 8, 8, 128)    0           leaky_re_lu_4[0][0]              
__________________________________________________________________________________________________
conv2d_5 (Conv2D)               (None, 8, 8, 128)    147584      max_pooling2d_4[0][0]            
__________________________________________________________________________________________________
batch_normalization_5 (BatchNor (None, 8, 8, 128)    512         conv2d_5[0][0]                   
__________________________________________________________________________________________________
leaky_re_lu_5 (LeakyReLU)       (None, 8, 8, 128)    0           batch_normalization_5[0][0]      
__________________________________________________________________________________________________
max_pooling2d_5 (MaxPooling2D)  (None, 4, 4, 128)    0           leaky_re_lu_5[0][0]              
__________________________________________________________________________________________________
flatten (Flatten)               (None, 2048)         0           max_pooling2d_5[0][0]            
__________________________________________________________________________________________________
dense (Dense)                   (None, 64)           131136      flatten[0][0]                    
__________________________________________________________________________________________________
leaky_re_lu_6 (LeakyReLU)       (None, 64)           0           dense[0][0]                      
__________________________________________________________________________________________________
reshape (Reshape)               (None, 4, 4, 4)      0           leaky_re_lu_6[0][0]              
__________________________________________________________________________________________________
conv2d_6 (Conv2D)               (None, 4, 4, 128)    4736        reshape[0][0]                    
__________________________________________________________________________________________________
batch_normalization_6 (BatchNor (None, 4, 4, 128)    512         conv2d_6[0][0]                   
__________________________________________________________________________________________________
leaky_re_lu_7 (LeakyReLU)       (None, 4, 4, 128)    0           batch_normalization_6[0][0]      
__________________________________________________________________________________________________
up_sampling2d (UpSampling2D)    (None, 8, 8, 128)    0           leaky_re_lu_7[0][0]              
__________________________________________________________________________________________________
conv2d_7 (Conv2D)               (None, 8, 8, 128)    147584      up_sampling2d[0][0]              
__________________________________________________________________________________________________
batch_normalization_7 (BatchNor (None, 8, 8, 128)    512         conv2d_7[0][0]                   
__________________________________________________________________________________________________
leaky_re_lu_8 (LeakyReLU)       (None, 8, 8, 128)    0           batch_normalization_7[0][0]      
__________________________________________________________________________________________________
up_sampling2d_1 (UpSampling2D)  (None, 16, 16, 128)  0           leaky_re_lu_8[0][0]              
__________________________________________________________________________________________________
conv2d_8 (Conv2D)               (None, 16, 16, 64)   73792       up_sampling2d_1[0][0]            
__________________________________________________________________________________________________
batch_normalization_8 (BatchNor (None, 16, 16, 64)   256         conv2d_8[0][0]                   
__________________________________________________________________________________________________
leaky_re_lu_9 (LeakyReLU)       (None, 16, 16, 64)   0           batch_normalization_8[0][0]      
__________________________________________________________________________________________________
up_sampling2d_2 (UpSampling2D)  (None, 32, 32, 64)   0           leaky_re_lu_9[0][0]              
__________________________________________________________________________________________________
conv2d_9 (Conv2D)               (None, 32, 32, 64)   36928       up_sampling2d_2[0][0]            
__________________________________________________________________________________________________
batch_normalization_9 (BatchNor (None, 32, 32, 64)   256         conv2d_9[0][0]                   
__________________________________________________________________________________________________
leaky_re_lu_10 (LeakyReLU)      (None, 32, 32, 64)   0           batch_normalization_9[0][0]      
__________________________________________________________________________________________________
up_sampling2d_3 (UpSampling2D)  (None, 64, 64, 64)   0           leaky_re_lu_10[0][0]             
__________________________________________________________________________________________________
conv2d_10 (Conv2D)              (None, 64, 64, 32)   18464       up_sampling2d_3[0][0]            
__________________________________________________________________________________________________
batch_normalization_10 (BatchNo (None, 64, 64, 32)   128         conv2d_10[0][0]                  
__________________________________________________________________________________________________
leaky_re_lu_11 (LeakyReLU)      (None, 64, 64, 32)   0           batch_normalization_10[0][0]     
__________________________________________________________________________________________________
up_sampling2d_4 (UpSampling2D)  (None, 128, 128, 32) 0           leaky_re_lu_11[0][0]             
__________________________________________________________________________________________________
conv2d_11 (Conv2D)              (None, 128, 128, 32) 9248        up_sampling2d_4[0][0]            
__________________________________________________________________________________________________
batch_normalization_11 (BatchNo (None, 128, 128, 32) 128         conv2d_11[0][0]                  
__________________________________________________________________________________________________
tf_op_layer_Sub (TensorFlowOpLa [(None, 128, 128, 32 0           batch_normalization_1[0][0]      
                                                                 batch_normalization_11[0][0]     
==================================================================================================
…
